web/static/air-snare-pro-model.tflite (tflite, 12312 bytes, 6 tensors)

sequential_3/dense_Dense7/MatMul/ReadVariableOp/transpose f4 [50, 36]
0	0x3db1beca	0.08678968
1	0xbd02dc63	-0.03194846
2	0xbe3b5696	-0.18294749
3	0xbde8bce4	-0.11364153
4	0xbd9cae12	-0.07650389
5	0x3e209f1a	0.15685692
6	0x3d018acc	0.031626508
7	0xbe9951b9	-0.29945162
8	0xbebe9e12	-0.37229973
9	0x3e33f069	0.17572178
10	0x3e6a912f	0.22906946
11	0xbe78af67	-0.2428566
12	0xbe223045	-0.15838726
13	0xbcdab2bd	-0.026696557
14	0xbe10e4b9	-0.14149751
15	0x3c5f80fc	0.013641592
16	0xbdb56825	-0.088577546
17	0x3c58cec2	0.013232889
18	0x3eb4a8f2	0.35285145
19	0xbdd13436	-0.102150366
20	0x3c2a2d98	0.010386847
21	0xbd10edc9	-0.03538302
22	0xbd48a5bd	-0.048986185
23	0xbe23eeb4	-0.16009027
24	0x3ecc0c29	0.39853027
25	0x3e593377	0.21211039
26	0x3e8293c1	0.25503352
27	0x3dc50a5d	0.09621117
28	0xbe80595a	-0.2506817
29	0x3ca9d87d	0.020733112
30	0x3e0221d8	0.12708223
31	0xbd350a22	-0.044199117
32	0xbdf38bfe	-0.11891936
33	0xbcad17c5	-0.021129498
34	0x3ddadaca	0.10686262
35	0xbd3d9c67	-0.046291735
36	0x3e5c6238	0.21521842
37	0x3d5e9540	0.054341555
38	0xbd7e81e2	-0.062135585
39	0x3de7ca7f	0.1131792
40	0xbe9496f4	-0.29021418
41	0xbe047338	-0.12934577
42	0x3ebd864d	0.37016526
43	0x3e13d239	0.14435662
44	0x3e21c454	0.1579755
45	0xbe2755b0	-0.16341281
46	0x3d04bc6e	0.032406263
47	0x3e825b91	0.25460485
48	0x3bd5c080	0.006523192
49	0xbe1044fe	-0.14088818
50	0xbe382105	-0.17981346
51	0xbdb94dfa	-0.09048076
52	0x3d700a8f	0.05860382
53	0xbd2090af	-0.03920048
54	0xbdcba90c	-0.099443525
55	0xbda5a19d	-0.08087466
56	0xbda22dae	-0.07918869
57	0x3e352663	0.17690425
58	0x3e246a9b	0.16056292
59	0xbd83acae	-0.064294204
60	0x3e0d3fe4	0.13793904
61	0xbc7cdc6a	-0.01543341
62	0xbe1f5bb0	-0.1556232
63	0xbd900026	-0.07031278
64	0x3cea05d5	0.028567234
65	0x3d39a589	0.045323882
66	0xbbc9c07b	-0.0061569787
67	0xbe89c309	-0.26906613
68	0xbe42642d	-0.18983527
69	0x390efbcf	0.00013635981
70	0x3e35b6ae	0.17745468
71	0xbd8e31b3	-0.06943073
72	0xbd4b0b54	-0.04957135
73	0xbe23d591	-0.15999438
74	0xbe189f86	-0.14904603
75	0xba9fd036	-0.0012192789
76	0x3e0a7753	0.13522081
77	0xbe5e9cde	-0.21739528
78	0x3d7bfb60	0.061519027
79	0xbe5cda3a	-0.21567622
80	0xbdc3f207	-0.095676474
81	0x3e7d4d37	0.24736486
82	0x3dbf12d8	0.09329766
83	0xbe5af461	-0.21382286
84	0xbdba6845	-0.09101919
85	0xbe2e95ad	-0.17049284
86	0xbe92fbf0	-0.28707838
87	0xbdc02ce7	-0.093835644
88	0x3dffc975	0.12489597
89	0xbe737f36	-0.23778996
90	0x3ec9a617	0.3938453
91	0x3e47b28d	0.19501705
92	0x3d1a6d35	0.037701804
93	0xbc59ed88	-0.013301261
94	0xbe8f4a27	-0.2798626
95	0xbdedb32c	-0.1160644
96	0x3e781add	0.24228998
97	0x3c2cbd34	0.010543156
98	0x3e24196d	0.16025324
99	0x3cb74fdd	0.022376949
100	0x3e83a2e7	0.25710222
101	0xbdfe0208	-0.12402731
102	0x3de9a576	0.11408512
103	0x3d906daa	0.07052167
104	0xbd0f9fff	-0.035064694
105	0x3e100b87	0.14066897
106	0x3d2db468	0.042408377
107	0x3e01276c	0.12612695
108	0xbdbb4b5b	-0.09145232
109	0x3e1e8674	0.15480977
110	0xbea0031d	-0.31252375
111	0xbe871729	-0.26384857
112	0xbdef4d2d	-0.11684642
113	0x3d116dcd	0.035505105
114	0xbe42574d	-0.18978615
115	0x3e16ecd2	0.14738777
116	0x3d8c805e	0.068604216
117	0x3cef96f8	0.029246792
118	0x3b3ffc3c	0.002929463
119	0x3c6be230	0.014397189
120	0x3d396196	0.04525908
121	0xbd114daa	-0.035474457
122	0xbe4c441a	-0.19947854
123	0xbd9ece18	-0.07754153
124	0xbd87b5c5	-0.06626467
125	0xbd309b13	-0.04311664
126	0xbe9eef77	-0.31042072
127	0x3dc0d0d6	0.09414832
128	0x3e4172dd	0.18891473
129	0x3d43a706	0.047766708
130	0x3d8febd0	0.070273995
131	0x3e1d4943	0.15359978
132	0xbded56aa	-0.115887955
133	0xbd63285a	-0.055458404
134	0x3ea0427e	0.3130073
135	0xbd367790	-0.044547617
136	0xbe97628f	-0.29567382
137	0xbdd5df08	-0.104429305
138	0xbe0bfa88	-0.13669789
139	0xbe2ed405	-0.17073067
140	0x3e1c1969	0.15244068
141	0x3e2596a3	0.16170745
142	0x3ce5979a	0.02802639
143	0x3d4b97b1	0.04970521
144	0xbeb19071	-0.34680513
145	0xbe8fe6a8	-0.28105664
146	0xbea44807	-0.32086203
147	0x3d4100f0	0.047120035
148	0xbc37dcf7	-0.011222116
149	0x3b8bf306	0.004270914
150	0x3dcf1a8e	0.10112487
151	0xbd47a5df	-0.04874217
152	0xbed84dbd	-0.4224681
153	0xbdbe7d51	-0.09301246
154	0x3d4ea852	0.05045349
155	0xbd7e07d1	-0.062019173
156	0xbcdbdab5	-0.026837686
157	0xbd862550	-0.065500855
158	0x3de0e90a	0.10981949
159	0xbd217f60	-0.039428115
160	0x3dc4fc1e	0.096184
161	0xbe6adff1	-0.2293699
162	0x3e5952b0	0.21222949
163	0x3caadccb	0.020857235
164	0xbdb38bb2	-0.08766879
165	0x3d988b04	0.0744839
166	0xbd9acdae	-0.075587615
167	0xbc1aa418	-0.009438537
168	0x3e97a0df	0.29614922
169	0x3e2d0f8e	0.16900465
170	0x3dab768c	0.083722204
171	0x3d9d2fd8	0.07675141
172	0x3e4ba8fb	0.1988868
173	0x3cd23675	0.025660733
174	0x3ee7b6aa	0.4525655
175	0x3cde8fe7	0.027168227
176	0xbdd5db6f	-0.10442244
177	0x3daeaaef	0.08528697
178	0xbc0edda4	-0.008719835
179	0x3e2fa6dd	0.17153497
180	0xbe067402	-0.13130191
181	0xbea0e607	-0.31425497
182	0xbd43c343	-0.047793638
183	0xbe419168	-0.18903124
184	0x3ea0dda2	0.31419092
185	0x3d654da7	0.05598226
186	0xbe680362	-0.2265754
187	0xbe918a3e	-0.28425783
188	0xbe285623	-0.16439109
189	0x3c7ac030	0.01530461
190	0x3c235854	0.00996979
191	0x3e4438b8	0.19162261
192	0x3dd693aa	0.104773834
193	0x3e1ad2a2	0.15119413
194	0xbdd1ce7d	-0.10244463
195	0xbd2eb75c	-0.042655334
196	0xbded9c56	-0.11602084
197	0xbc7f2908	-0.015573747
198	0x3e1dc4d8	0.15407121
199	0x3e3834a1	0.17988826
200	0x3d5577cb	0.052116197
201	0xbe1a263c	-0.15053648
202	0x3e2b8ad7	0.16752182
203	0x3e8cdc79	0.27511957
204	0xbda0ab41	-0.07845164
205	0x3da350dd	0.07974408
206	0x3e567add	0.20945306
207	0xbd7c855f	-0.06165063
208	0xbda8d02f	-0.08242833
209	0x3e52d19d	0.20587774
210	0xbd97faaf	-0.07420861
211	0x3ea449a1	0.32087424
212	0xbe973631	-0.29533532
213	0xbe0edff9	-0.13952626
214	0xbea1053e	-0.31449312
215	0x3d28ad91	0.04118115
216	0x3cf7fccf	0.030271916
217	0xbcf7052c	-0.030153833
218	0xbcc2737d	-0.02373671
219	0x3d342273	0.043978166
220	0x3e0d258d	0.13783856
221	0x3eb42c37	0.35189983
222	0x3e074e96	0.13213572
223	0x3cef0ed7	0.02918188
224	0x3cab448e	0.020906713
225	0xbd5b86b4	-0.05359526
226	0x3e9dbd2c	0.3080839
227	0x3ca0a59b	0.019610217
228	0xbddf0818	-0.10890216
229	0x3e59450b	0.21217744
230	0x3d9d87b7	0.07691901
231	0xbd9605c0	-0.073253155
232	0xbe38c42a	-0.1804358
233	0xbd3f2f88	-0.04667619
234	0x3e055d72	0.13023928
235	0x3e6aed23	0.22942023
236	0x3cf7a012	0.030227695
237	0xbe1f5d34	-0.15562898
238	0x3d01e6d1	0.031714264
239	0xbd147ffb	-0.036254864
240	0x3e4b4603	0.19850926
241	0x3e79c4f5	0.2439154
242	0x3bfbed9f	0.0076882388
243	0xbd2f2672	-0.042761274
244	0xbe7db5c4	-0.2477637
245	0x3d9d0009	0.07666022
246	0x3eaec756	0.34136456
247	0x3bf95750	0.0076092854
248	0xbdde3db7	-0.10851615
249	0xbe579a0a	-0.21054855
250	0xbe81c722	-0.2534724
251	0x3e4b223a	0.19837275
252	0xbd5479b4	-0.051873878
253	0xbf0696b4	-0.52573705
254	0xbe85f5b8	-0.2616403
255	0xbe89b0fe	-0.26892847

sequential_3/dense_Dense7/MatMul_bias f4 [50]
0	0x3d9b7f27	0.07592612
1	0x3db3e064	0.087830335
2	0x3dc38880	0.0954752
3	0x3d814d37	0.06313556
4	0x3e0be054	0.13659793
5	0x3d65c2a5	0.05609383
6	0x3d40ced6	0.047072254
7	0x3e0f1fb2	0.13976935
8	0x3ce6cc0c	0.028173469
9	0x3d3a7008	0.045516998
10	0xbc8e9d24	-0.017408915
11	0x3ca7741f	0.020441113
12	0x3db38430	0.08765447
13	0x3da31515	0.079630055
14	0x3e3896be	0.18026254
15	0xbcd2492a	-0.025669653
16	0x3dcbbe06	0.099483535
17	0xbd1ba088	-0.03799489
18	0x3ddf6036	0.10907023
19	0xbe0516a5	-0.1299692
20	0xbccebf84	-0.025237806
21	0x3dcc622c	0.09979662
22	0x3cec01dc	0.02880948
23	0x3cd339f3	0.025784468
24	0x3e27f661	0.1640258
25	0x3d9559ba	0.072925046
26	0xbc4e5c92	-0.012595313
27	0xbae9ab05	-0.0017827457
28	0x3d39d620	0.04537022
29	0x3d8662d5	0.065618195
30	0x3b8441eb	0.0040361783
31	0xbd8e3ee9	-0.06945593
32	0x39de55a5	0.0004240695
33	0x3d9668f0	0.07344234
34	0x3e06954a	0.13142887
35	0xbd485ed9	-0.04891858
36	0x3e0b0cef	0.13579153
37	0x3d329808	0.04360202
38	0x3ca20a36	0.01978026
39	0x3d45d386	0.048297428
40	0x3bfd43bb	0.0077290214
41	0x3d823c7c	0.06359193
42	0x3d7f1575	0.062276322
43	0x3d8e31ca	0.0694309
44	0x3deb55b1	0.11490954
45	0x3d04bf3b	0.032408934
46	0x3d2120bb	0.039337855
47	0x3d85510e	0.065096006
48	0x3e0bb6a2	0.13643888
49	0x3dac3ca6	0.08410005

sequential_3/dense_Dense8/MatMul/ReadVariableOp/transpose f4 [15, 50]
0	0x3dfac602	0.12244798
1	0x3cd6ae19	0.026206063
2	0x3e14b1eb	0.14520995
3	0x3e9443bc	0.28957927
4	0xbe6d9b9e	-0.23203894
5	0xbde54943	-0.11195614
6	0xbd474b37	-0.048655715
7	0xbcdf9c73	-0.02729628
8	0x3e9636bf	0.29338643
9	0xbe4a8076	-0.19775566
10	0xbd59a6e1	-0.053137664
11	0xbd37a773	-0.044837426
12	0xbe9b8e02	-0.3038178
13	0xbeb1d6d5	-0.34734216
14	0xbd07384e	-0.03301268
15	0xbe633c40	-0.22190952
16	0xbe2aa402	-0.16664127
17	0xbae995f5	-0.001782118
18	0xbd96861d	-0.07349799
19	0xbdc020ae	-0.09381233
20	0x3e9ad54d	0.3024086
21	0xbdf53072	-0.11972131
22	0xbe30c4bc	-0.17262548
23	0xbd44ab8e	-0.04801517
24	0xbdd81e7a	-0.10552688
25	0xbc5e771f	-0.013578205
26	0xbd076412	-0.03305442
27	0xbd91b190	-0.071139455
28	0x3dcbfd90	0.099604726
29	0xbe46238c	-0.19349498
30	0x3d92e0ee	0.07171808
31	0xbd01bdb2	-0.03167505
32	0x3e1bb715	0.15206559
33	0x3dc284b3	0.094979666
34	0xbe8d7431	-0.2762771
35	0x3d941ca4	0.07232025
36	0x3dfd454b	0.12366732
37	0xbc3a6fb2	-0.011379169
38	0x3de8c53a	0.11365743
39	0x3e561640	0.20906925
40	0xbdee05fe	-0.11622237
41	0x3de98046	0.11401419
42	0x3d021faa	0.03176848
43	0xbde51f93	-0.11187663
44	0xbdc6e5ad	-0.09711776
45	0xbdda5e81	-0.106625564
46	0xbbf412c7	-0.0074485275
47	0xbe02c9a4	-0.12772232
48	0x3e2bf7fe	0.1679382
49	0x3dcf9f2a	0.1013778
50	0x3e5ffb71	0.21873261
51	0xbcd37f3c	-0.025817506
52	0x3edf1a89	0.43574932
53	0x3e5e154b	0.2168781
54	0x3ed12c51	0.40854123
55	0x3e89b529	0.26896027
56	0x3e9feb08	0.31234002
57	0x3e8cb9a0	0.2748537
58	0x3e1b9df1	0.15196969
59	0x3e20866a	0.15676275
60	0xbeb57c2f	-0.35446307
61	0x3d47ae52	0.04875023
62	0x3e80af23	0.2513362
63	0x3cff2d30	0.031149477
64	0x3e934c7a	0.28769284
65	0x3d49db76	0.04928156
66	0x3ea01eb1	0.31273416
67	0xbcdcc12d	-0.026947582
68	0xbe601e8e	-0.21886656
69	0x3d586827	0.052833702
70	0x3e5d8c52	0.21635559
71	0x3c4475fc	0.01199102
72	0x3cfa9590	0.030588895
73	0xbe37c6c6	-0.1794692
74	0x3d83ca97	0.06435125
75	0xbdaa3beb	-0.0831221
76	0xbe8b68de	-0.27228445
77	0x3eaa4b7c	0.33260715
78	0x3a6f93b8	0.0009139138
79	0x3bb9b146	0.0056668846
80	0xbd73e9e7	-0.05954924
81	0x3d728f98	0.059218973
82	0x3e539e8b	0.20665948
83	0x3dbb9d72	0.0916089
84	0x3c174ec8	0.0092350915
85	0x3c81af7a	0.015830744
86	0x3eb73eaf	0.3579001
87	0xbe384155	-0.17993672
88	0xbd921b7c	-0.071341485
89	0x3bb65ac5	0.00556502
90	0xbec1ba79	-0.3783758
91	0xbea5c60a	-0.32377654
92	0x3e632dee	0.2218549
93	0x3e13ab27	0.14420758
94	0x3e8dffae	0.2773413
95	0x3da5d56d	0.08097348
96	0xbd542e84	-0.051802173
97	0xbd5cbfb5	-0.053893764
98	0x3d04d37a	0.032428242
99	0x3ec8d64f	0.39226004
100	0x3e28c8f6	0.1648291
101	0xbdb62ba7	-0.08895045
102	0xbd9602cd	-0.07324753
103	0x3dbb7a5a	0.09154196
104	0x3e826e8d	0.2547497
105	0xbe9713d0	-0.29507303
106	0xbe5e7d96	-0.21727595
107	0xbe206e5c	-0.15667099
108	0xbe3fb1a4	-0.18720108
109	0x3c9db352	0.019250546
110	0xbd5cac2a	-0.053875126
111	0xbd5ab83f	-0.053398367
112	0xbd2e6e0c	-0.042585418
113	0x3de52983	0.11189558
114	0x3d44960e	0.047994666
115	0x3e39692b	0.18106525
116	0x3ea5b876	0.32367295
117	0xbd5b6fb5	-0.05357333
118	0x3e984572	0.29740483
119	0xbe630a40	-0.22171879
120	0xbe9a4fbd	-0.3013896
121	0x3e46652c	0.19374532
122	0xbe3ff197	-0.18744503
123	0x3ed9c56a	0.42533427
124	0x3e7dd22a	0.24787202
125	0xbcecab42	-0.028890256
126	0x3e698611	0.22805049
127	0xbe917905	-0.28412643
128	0x3df7d828	0.121017754
129	0xbdfb5254	-0.12271562
130	0xbc222df9	-0.009898656
131	0xbe5028d3	-0.20328073
132	0x3d95a093	0.07306018
133	0xbd76b1df	-0.060228225
134	0x3e0d793f	0.13815783
135	0xbcbc1dbb	-0.022963395
136	0x3e283dd3	0.16429834
137	0x3eb03b45	0.3442022
138	0x3e0c2cc2	0.13688949
139	0xbcaf5f34	-0.021407701
140	0x3eb1eca5	0.34750858
141	0x3e84e6a5	0.25957218
142	0xbe309492	-0.17244175
143	0x3e8e5591	0.27799657
144	0xbd6e84ce	-0.05823212
145	0x3e303f0b	0.17211549
146	0xbe05faac	-0.13083905
147	0x3e223742	0.15841392
148	0x3e754b74	0.23954564
149	0xbdfcbfc5	-0.12341265
150	0x3e34f70f	0.1767237
151	0xbb014ff5	-0.0019731496
152	0x3caf3fd4	0.02139274
153	0xbd30c040	-0.043152094
154	0x3d48b4eb	0.04900066
155	0xbe988e6f	-0.29796168
156	0xbdfb3d4c	-0.12267551
157	0xbdebe754	-0.11518732
158	0x3e823a62	0.25435168
159	0x3dabcddf	0.08388876
160	0xbc873cbf	-0.016508458
161	0x3cfbf1e5	0.030754993
162	0xbdbd40a0	-0.09240842
163	0x3cf0ab0d	0.029378438
164	0x3e333683	0.17501263
165	0xbe7aa186	-0.24475679
166	0xbc79ff83	-0.015258673
167	0xbdffe690	-0.12495148
168	0xbe3028ea	-0.17203107
169	0x3e8e50fe	0.27796167
170	0xbe8a2f1b	-0.26989064
171	0xbdb7e69b	-0.089795314
172	0xbe39763e	-0.18111512
173	0xbd93c825	-0.07215909
174	0x3e8ccf04	0.2750169
175	0x3d7fd554	0.062459305
176	0xbd4bd984	-0.049767986
177	0x3cbdbb8b	0.023160717
178	0xbddd18cc	-0.10795745
179	0x3d526074	0.051361516
180	0x3db1c05d	0.086792685
181	0xbb365aeb	-0.0027825187
182	0x3d22ddfb	0.03976248
183	0x3db995a4	0.09061745
184	0xbe06c118	-0.13159597
185	0x3e569a90	0.20957398
186	0xbc636a43	-0.013880315
187	0xbe14d041	-0.14532568
188	0x3e138010	0.1440432
189	0x3e0f8dde	0.14018962
190	0xbe857809	-0.26068142
191	0xbe46fdbf	-0.19432734
192	0xbe5e5c39	-0.21714868
193	0x3c07b7eb	0.008283596
194	0xbe74dfd4	-0.23913509
195	0x3d835f58	0.0641467
196	0xbe099278	-0.1343478
197	0x3df36300	0.11884117
198	0xbd8d4861	-0.06898571
199	0xbdd1fe2c	-0.102535576
200	0xbdca4981	-0.09877301
201	0xbe7e90a9	-0.24859871
202	0xbe7e588a	-0.24838462
203	0x3e9f1ddc	0.31077468
204	0xbefbc7ea	-0.4917596
205	0x3bf8b99b	0.0075904853
206	0xbe551028	-0.20806944
207	0xbe553b45	-0.20823391
208	0xbbdcd0f2	-0.0067387754
209	0x3e0fe803	0.14053349
210	0xbcbcf569	-0.02306624
211	0xbe4407d1	-0.19143607
212	0x3d80ab37	0.06282657
213	0xbd40fe6c	-0.047117636
214	0x3ec5b014	0.386109
215	0x3e7ede2e	0.24889442
216	0x3d776d2f	0.06040686
217	0xbd12d44e	-0.035847
218	0x3a853ef9	0.0010165862
219	0xbc8c7049	-0.017143385
220	0x3b390f53	0.0028237894
221	0x3e4c37e2	0.19943193
222	0x3c3e32f5	0.011608829
223	0x3f0b3e41	0.54391867
224	0x3d00868b	0.03137831
225	0x3edc808c	0.43066823
226	0x3e9274cc	0.28604734
227	0xbd0388fc	-0.03211306
228	0x3d3b6496	0.045750223
229	0xbe8a3805	-0.26995865
230	0x3edebd53	0.43503818
231	0xbe6312ac	-0.22175092
232	0xbe5d7e40	-0.21630192
233	0xbe1ca035	-0.15295489
234	0xbe31209a	-0.17297593
235	0x3e577758	0.2104162
236	0xbe0b53b7	-0.13606153
237	0x3ece439b	0.40285954
238	0x3e6cbfa1	0.23119976
239	0xbe5faf42	-0.218442
240	0x3ee40c37	0.4454057
241	0x3e28f68a	0.16500297
242	0xbed75bef	-0.42062327
243	0xbd909f29	-0.070616074
244	0xbe7dc706	-0.24782953
245	0xbe8ddb1b	-0.27706227
246	0xbeb5a511	-0.35477498
247	0x3e5a476b	0.21316306
248	0x3d29179d	0.041282285
249	0xbde504ce	-0.11182557
250	0x3da10b38	0.07863468
251	0x3e9d80b6	0.3076226
252	0xbc191e16	-0.009345552
253	0xbdd57aca	-0.10423811
254	0x3ea9978a	0.33123428
255	0x3dadefea	0.084930256

sequential_3/dense_Dense8/MatMul_bias f4 [15]
0	0xbcef82a9	-0.029237108
1	0x3e446590	0.19179368
2	0x3e3df7e4	0.18551594
3	0xbcfedc9d	-0.031111056
4	0x3ce6c682	0.028170828
5	0x3d929437	0.07157176
6	0x3ca98045	0.020691046
7	0x3e17afc3	0.14813142
8	0x3dbebd65	0.09313468
9	0xbc5aa577	-0.013345114
10	0x3d53f841	0.051750425
11	0x3e11b125	0.14227732
12	0x3e49ce87	0.1970769
13	0x3dbde9e2	0.09273125
14	0x3e1420a1	0.14465572

sequential_3/dense_Dense9/MatMul/ReadVariableOp/transpose f4 [3, 15]
0	0x3e25d8da	0.16196004
1	0xbc32e766	-0.0109194275
2	0xbf8543e0	-1.0411339
3	0x3df34d31	0.118799575
4	0xbf8ae971	-1.0852491
5	0xbec92265	-0.39284053
6	0x3dbc0094	0.09179798
7	0x3ebf3795	0.37347093
8	0x3f0d98af	0.553111
9	0xbe1ae6bb	-0.15127079
10	0x3edd2532	0.4319244
11	0x3e8bec2f	0.2732863
12	0xbf48b927	-0.7840752
13	0x3f1eaf7d	0.61986524
14	0x3dc5ec52	0.09664215
15	0xbe0cd033	-0.13751297
16	0xbf572f30	-0.8405638
17	0x3e4e417f	0.20142172
18	0xbe47f45d	-0.19526811
19	0x3ec5c59d	0.3862733
20	0xbe8b0341	-0.2715092
21	0x3ed44836	0.41461343
22	0xbf571dae	-0.8402966
23	0x3e15de45	0.1463557
24	0x3ed26494	0.4109236
25	0xbeacd012	-0.33752495
26	0xbea12af3	-0.3147808
27	0x3eaf2bf2	0.34213215
28	0x3cafd313	0.021462953
29	0xbf06bad3	-0.5262882
30	0xbe83b1d8	-0.25721622
31	0x3d268268	0.04065171
32	0x3d799714	0.060935095
33	0xbe042a6c	-0.12906808
34	0xbf2364d1	-0.6382571
35	0xbda55625	-0.080730714
36	0xbf3b9436	-0.73273027
37	0xbe0cffa8	-0.137694
38	0xbf0afd5e	-0.5429286
39	0x3e5637f5	0.20919783
40	0x3e249632	0.1607292
41	0x3e82ad63	0.2552291
42	0x3f45e7a9	0.7730661
43	0xbf691c10	-0.91058445
44	0x3f4477e2	0.76745427

sequential_3/dense_Dense9/MatMul_bias f4 [3]
0	0xbe70a027	-0.23498593
1	0xbdf10b3d	-0.11769722
2	0x3dcc1af5	0.09966079
